…
in: ziffer_raw/1_3.jpg  -  out: ziffer_resize/1_3.jpg
in: ziffer_raw/1_arbitrary_20220227.jpg  -  out: ziffer_resize/1_arbitrary_20220227.jpg
in: ziffer_raw/1_1_digit3_20210315-230740.jpg  -  out: ziffer_resize/1_1_digit3_20210315-230740.jpg
in: ziffer_raw/8_1_20220211.jpg  -  out: ziffer_resize/8_1_20220211.jpg
dig-s0
a_output_actual/dig-s0
File Exists
Model: "sequential"
_________________________________________________________________
 Layer (type)                Output Shape              Param #   
=================================================================
 batch_normalization (BatchN  (None, 32, 20, 3)        12        
 ormalization)                                                   
                                                                 
 conv2d (Conv2D)             (None, 32, 20, 32)        896       
                                                                 
 max_pooling2d (MaxPooling2D  (None, 16, 10, 32)       0         
 )                                                               
                                                                 
 conv2d_1 (Conv2D)           (None, 16, 10, 64)        18496     
                                                                 
 max_pooling2d_1 (MaxPooling  (None, 8, 5, 64)         0         
 2D)                                                             
                                                                 
 conv2d_2 (Conv2D)           (None, 8, 5, 64)          36928     
                                                                 
 max_pooling2d_2 (MaxPooling  (None, 4, 2, 64)         0         
 2D)                                                             
                                                                 
 flatten (Flatten)           (None, 512)               0         
                                                                 
 dense (Dense)               (None, 512)               262656    
                                                                 
 dense_1 (Dense)             (None, 11)                5643      
                                                                 
=================================================================
Total params: 324,631
Trainable params: 324,625
Non-trainable params: 6
_________________________________________________________________
1214
(1214, 32, 20, 3)
(1214, 11)
(971, 32, 20, 3)
(243, 32, 20, 3)
Epoch 1/100
  1/243 [..............................] -
…
243/243 [==============================] - 3s 11ms/step - loss: 3.0690e-04 - accuracy: 1.0000 - val_loss: 0.1424 - val_accuracy: 0.9877
dig-s0
File Exists
ziffer_resize/0_0_nt1_20210626-090405.jpg 0 8
ziffer_resize/0_10_dig2_20220315-120655.jpg 0 -1
ziffer_resize/7_10_dec2_20220315-120655.jpg 7 -1
dig-s1
a_output_actual/dig-s1
File Exists
Model: "sequential_1"
_________________________________________________________________
 Layer (type)                Output Shape              Param #   
=================================================================
 batch_normalization_1 (Batc  (None, 32, 20, 3)        12        
 hNormalization)                                                 
                                                                 
 conv2d_3 (Conv2D)           (None, 32, 20, 32)        896       
                                                                 
 max_pooling2d_3 (MaxPooling  (None, 16, 10, 32)       0         
 2D)                                                             
                                                                 
 conv2d_4 (Conv2D)           (None, 16, 10, 64)        18496     
                                                                 
 max_pooling2d_4 (MaxPooling  (None, 8, 5, 64)         0         
 2D)                                                             
                                                                 
 conv2d_5 (Conv2D)           (None, 8, 5, 64)          36928     
                                                                 
 max_pooling2d_5 (MaxPooling  (None, 4, 2, 64)         0         
 2D)                                                             
                                                                 
 flatten_1 (Flatten)         (None, 512)               0         
                                                                 
 dense_2 (Dense)             (None, 256)               131328    
                                                                 
 dense_3 (Dense)             (None, 11)                2827      
                                                                 
=================================================================
Total params: 190,487
Trainable params: 190,481
Non-trainable params: 6
_________________________________________________________________
1214
(1214, 32, 20, 3)
(1214, 11)
(971, 32, 20, 3)
(243, 32, 20, 3)
Epoch 1/100
  1/243 [..............................] -
…
20220316	1214	97	0.0012956715654581785	0.07921197265386581
20220316	1214	98	0.028300294652581215	0.05244647338986397
20220316	1214	99	0.025281906127929688	0.017842890694737434
20220316	1214	100	0.011112258769571781	0.2727324664592743
dig-s1
File Exists
ziffer_resize/0_0_nt1_20210626-090405.jpg 0 9
ziffer_resize/3_0_ht4_20210701-194658.jpg 3 9
dig-s2
a_output_actual/dig-s2
File Exists
Model: "sequential_2"
_________________________________________________________________
 Layer (type)                Output Shape              Param #   
=================================================================
 batch_normalization_2 (Batc  (None, 32, 20, 3)        12        
 hNormalization)                                                 
                                                                 
 conv2d_6 (Conv2D)           (None, 32, 20, 32)        896       
                                                                 
 max_pooling2d_6 (MaxPooling  (None, 16, 10, 32)       0         
 2D)                                                             
                                                                 
 conv2d_7 (Conv2D)           (None, 16, 10, 32)        9248      
                                                                 
 max_pooling2d_7 (MaxPooling  (None, 8, 5, 32)         0         
 2D)                                                             
                                                                 
 conv2d_8 (Conv2D)           (None, 8, 5, 32)          9248      
                                                                 
 max_pooling2d_8 (MaxPooling  (None, 4, 2, 32)         0         
 2D)                                                             
                                                                 
 flatten_2 (Flatten)         (None, 256)               0         
                                                                 
 dense_4 (Dense)             (None, 256)               65792     
                                                                 
 dense_5 (Dense)             (None, 11)                2827      
                                                                 
=================================================================
Total params: 88,023
Trainable params: 88,017
Non-trainable params: 6
_________________________________________________________________
1214
(1214, 32, 20, 3)
(1214, 11)
(971, 32, 20, 3)
(243, 32, 20, 3)
Epoch 1/100
  1/243 [..............................] - E
…
20220316	1214	96	0.004235432483255863	0.08155504614114761
20220316	1214	97	0.016691915690898895	0.07115457952022552
20220316	1214	98	0.011480084620416164	0.33110716938972473
20220316	1214	99	0.022647004574537277	4.9623590712144505e-06
20220316	1214	100	0.014923281036317348	0.12475080788135529
dig-s2
File Exists
ziffer_resize/6_dig5_20220106-020809.jpg 6 0
dig-s3
a_output_actual/dig-s3
File Exists
Model: "sequential_3"
_________________________________________________________________
 Layer (type)                Output Shape              Param #   
=================================================================
 batch_normalization_3 (Batc  (None, 32, 20, 3)        12        
 hNormalization)                                                 
                                                                 
 conv2d_9 (Conv2D)           (None, 32, 20, 32)        896       
                                                                 
 max_pooling2d_9 (MaxPooling  (None, 16, 10, 32)       0         
 2D)                                                             
                                                                 
 conv2d_10 (Conv2D)          (None, 16, 10, 32)        9248      
                                                                 
 max_pooling2d_10 (MaxPoolin  (None, 8, 5, 32)         0         
 g2D)                                                            
                                                                 
 conv2d_11 (Conv2D)          (None, 8, 5, 32)          9248      
                                                                 
 max_pooling2d_11 (MaxPoolin  (None, 4, 2, 32)         0         
 g2D)                                                            
                                                                 
 flatten_3 (Flatten)         (None, 256)               0         
                                                                 
 dense_6 (Dense)             (None, 128)               32896     
                                                                 
 dense_7 (Dense)             (None, 11)                1419      
                                                                 
=================================================================
Total params: 53,719
Trainable params: 53,713
Non-trainable params: 6
_________________________________________________________________
1214
(1214, 32, 20, 3)
(1214, 11)
(971, 32, 20, 3)
(243, 32, 20, 3)
Epoch 1/100
  1/243 [..............................] - E
…
